save_model/196.169951_AUC_0.9684.pt (torch, 204689 bytes, 28 tensors)

encoder.lstm.weight_ih_l0 f4 [28, 588]
0.30287644 -0.12450333 0.11168597 0.25641108 0.061380383 -0.15929821 -0.36395556 0.3203909
0.30512652 -0.23724526 -0.17011474 -0.12690973 0.17375118 -0.2196164 -0.05867174 -0.37542948
-0.25288323 0.18381746 0.13617969 0.12411386 0.115717754 0.12088102 0.15429348 -0.29492182
-0.1608436 0.19440117 -0.2025356 -0.282644 0.022094354 0.3948707 0.16684553 0.3175534
8.033653e-05 -0.3413294 0.10136458 0.07764304 -0.22163 0.25696266 -0.058329955 0.099522986
-0.24017988 0.13914461 0.2438816 0.328642 -0.11090982 -0.21918748 -0.051438298 0.34943137
0.00551059 0.14664796 -0.05930263 -0.22868225 -0.18115875 -0.08288606 0.41217673 -0.06880729
0.25314897 -0.2941969 -0.28587052 -0.11874557 -0.2599319 -0.07616186 -0.23856111 0.10989147
0.2455105 0.18013102 0.22011271 -0.24884093 0.31333163 0.28144816 -0.1041773 0.3037742
-0.055283066 0.29041463 0.21295708 -0.32106978 -0.015120211 0.21450493 -0.26309898 0.38060552
-0.0075745145 -0.08193499 -0.02304252 0.18685624 0.21903902 0.27383205 -0.030102199 0.18375345
-0.2694167 0.31211713 0.26824334 -0.25964418 -0.18982351 0.07660575 -0.27027842 -0.12799884
0.3036007 -0.2081566 -0.012198274 0.4037931 -0.24995884 0.1490208 -0.28312272 -0.2548821
-0.09627638 -0.048898503 0.24185035 -0.14588454 -0.02237166 -0.13241291 0.22145875 0.28192386
-0.021741973 -0.18234095 -0.04091918 -0.22387472 0.28466225 0.1039295 -0.041719068 -0.05716754
-0.07750318 -0.0027620755 -0.30066824 0.25138444 -0.10475182 -0.004972722 0.055758994 0.07626845
0.06290091 -0.29606137 0.14570755 -0.016745294 0.37811598 0.12538496 -0.2748866 0.4007121
0.02947654 0.23443948 0.38318005 0.19553614 -0.10498224 -0.1514377 0.18859832 -0.011177435
-0.24255313 0.16081984 0.0077525494 0.1286828 -0.1706346 0.04617714 0.12162161 0.12975538
0.41581982 -0.28519055 -0.19847526 0.28214526 0.41086236 -0.18829155 0.008429825 -0.16129735
-0.020708876 0.20929113 -0.27080876 -0.16525254 0.3128864 0.13391797 0.2986322 -0.05213478
0.0039308607 -0.063621245 0.120144814 0.3016176 0.09192384 0.40566915 0.3928511 0.15466326
-0.23516336 -0.12878127 0.1384766 -0.072490215 0.08104516 -0.1284209 -0.016254256 -0.07312574
0.2326222 0.31633705 -0.3347053 0.36335096 -0.1619564 0.37002772 -0.288683 -0.25728643
0.2775977 0.3583897 0.39428267 -0.24472973 0.23210658 0.3446247 0.27558252 0.23991251
-0.3069391 -0.12661748 -0.100355335 -0.23909366 0.026952285 0.06250204 0.15092185 0.2446821
0.27652067 -0.31267536 -0.274935 0.23721732 0.12721154 0.1020295 0.30531195 0.17029463
-0.34066868 0.2506513 0.36792612 -0.28461742 0.055238653 0.11366632 -0.034544736 -0.10499256
-0.28468776 0.1388144 -0.21179225 0.13610564 0.21720724 0.16552262 -0.284814 0.062309142
-0.22193809 -0.34828728 0.38856474 -0.3366578 0.11407363 -0.23229483 -0.009167421 0.0255527
-0.3016954 -0.16430877 0.057079773 0.009125434 0.13451599 -0.3336278 0.21348612 0.36784276
-0.26582903 -0.28327027 -0.24196666 -0.28053448 0.1583282 -0.09673332 0.2314167 0.31876078
00000000: 9f12 9b3e 9afb febd 9dbb e43d 5048 833e
00000010: ff69 7b3d 121f 23be 6258 babe 470a a43e
00000020: 8b39 9c3e 6cf0 72be 8f32 2ebe a0f4 01be
00000030: d4eb 313e 1fe3 60be c751 70bd 4b38 c0be
00000040: e979 81be a53a 3c3e b072 0b3e 682f fe3d
00000050: 6efd ec3d 7890 f73d 1cff 1d3e feff 96be
00000060: 2fb4 24be 1a11 473e 7e65 4fbe b7b6 90be
00000070: 38ff b43c 7e2c ca3e 8ed9 2a3e 5c96 a23e
00000080: 597a a838 bac2 aebe 3c98 cf3d 5003 9f3d
00000090: faf2 62be 9c90 833e 64eb 6ebd b5d2 cb3d
000000a0: b7f1 75be ed7b 0e3e 19bc 793e c443 a83e
000000b0: b024 e3bd af72 60be f7b0 52bd abe8 b23e
000000c0: 2e92 b43b e22a 163e 51e7 72bd ae2b 6abe
000000d0: ae81 39be 2bc0 a9bd d408 d33e d6ea 8cbd
000000e0: be9c 813e faa0 96be 9f5d 92be e130 f3bd
000000f0: cb15 85be c0fa 9bbd 5d49 74be c70e e13d
00000100: 1b67 7b3e 4474 383e 3a65 613e 28d0 7ebe
00000110: 016d a03e f919 903e e95a d5bd 4b88 9b3e
00000120: 7f70 62bd 3ab1 943e 6c11 5a3e 4263 a4be
00000130: c3ba 77bc 2ea7 5b3e e9b4 86be bade c23e
00000140: a233 f8bb 88cd a7bd abc3 bcbc 3e57 3f3e
00000150: c44b 603e b733 8c3e e398 f6bc dd29 3c3e
00000160: fcf0 89be d1cd 9f3e 3157 893e 15f0 84be
00000170: 1861 42be 7ae3 9c3d ef61 8abe 2112 03be
00000180: 8d71 9b3e 0127 55be 45db 47bc f8bd ce3e
00000190: 36f5 7fbe e998 183e 76f5 90be e87f 82be
000001a0: 8d2c c5bd cc49 48bd 9ea7 773e c262 15be
000001b0: c644 b7bc 4097 07be 15c6 623e 5358 903e
000001c0: 391c b2bc 96b7 3abe df9a 27bd 6a3f 65be
000001d0: 40bf 913e fdd8 d43d 9de1 2abd 8328 6abd
000001e0: fdb9 9ebd f003 35bb 30f1 99be 76b5 803e
000001f0: 1f88 d6bd 37f2 a2bb 8b63 643d a232 9c3d
00000200: 31d2 803d 5b95 97be 5c34 153e 6d2d 89bc
00000210: 6b98 c13e ea64 003e f0bd 8cbe 232a cd3e
00000220: c978 f13c e710 703e 2d30 c43e a03a 483e
00000230: ee00 d7bd 7c12 1bbe eb1f 413e 8f21 37bc
00000240: d95f 78be f5ad 243e 1909 fe3b 6dc5 033e
00000250: d6ba 2ebe 3e24 3d3d c014 f93d 98de 043e
00000260: 56e6 d43e 7f04 92be 193d 4bbe 5875 903e
00000270: 8d5c d23e 80cf 40be 401d 0a3c 222b 25be
00000280: a9a5 a9bc 6a50 563e 72a7 8abe f637 29be
00000290: a532 a03e cb21 093e 52e6 983e 478b 55bd
000002a0: 73ce 803b db4b 82bd 7c0e f63d 9f6d 9a3e
000002b0: 9142 bc3d deb3 cf3e c823 c93e 0c60 1e3e
000002c0: aace 70be 3ddf 03be cfcc 0d3e c075 94bd
000002d0: 01fb a53d c580 03be a527 85bc f3c2 95bd
000002e0: 8434 6e3e eef6 a13e 7e5e abbe 2309 ba3e
000002f0: e6d7 25be 4674 bd3e 42ce 93be 0cbb 83be
00000300: 4921 8e3e db7e b73e 6bdf c93e 6e9a 7abe
00000310: 59ad 6d3e a672 b03e 2719 8d3e a0ab 753e
00000320: 1f27 9dbe 03a8 01be 1987 cdbd f8d4 74be
00000330: 0acb dc3c 1201 803d 428b 1a3e f28d 7a3e
00000340: 1e94 8d3e fc16 a0be 48c4 8cbe 19e9 723e
00000350: be43 023e d8f4 d03d d951 9c3e b761 2e3e
00000360: 206c aebe 5e55 803e d060 bc3e 60b9 91be
00000370: ed41 623d e3c9 e83d c87e 0dbd 5706 d7bd
00000380: 98c2 91be 5d25 0e3e 11e0 58be 475f 0b3e
00000390: 936b 5e3e c37e 293e 24d3 91be df37 7f3d
000003a0: bd43 63be b652 b2be f5f1 c63e 695e acbe
000003b0: 6f9f e93d b2de 6dbe f332 16bc e553 d13c
000003c0: d277 9abe 8f40 28be 7bcc 693d d882 153c
000003d0: 8fbe 093e 43d1 aabe 1b9c 5a3e e355 bc3e
000003e0: be1a 88be cd08 91be 1cc6 77be 37a2 8fbe
000003f0: ca20 223e 1e1c c6bd 80f8 6c3e 9d34 a33e

encoder.lstm.weight_hh_l0 f4 [28, 7]
0.16021827 0.1248737 0.3131279 -0.32119924 0.029895462 0.31949496 -0.36844057 -0.29054576
0.35523322 0.04383168 -0.10239397 0.29224685 -0.30339912 0.23926616 -0.34358057 0.26353207
-0.1971792 -0.3077441 -0.23049453 -0.2780658 -0.1036692 0.21085747 -0.23553368 0.3434295
-0.33946106 -0.31530344 0.14313018 0.16386446 -0.33808616 -0.2661894 0.13620093 0.24412921
-0.17333929 0.030097812 -0.35379907 -0.21227047 -0.23711726 0.27132294 0.16515455 -0.31656253
-0.22481632 -0.19773985 -0.021658782 -0.054206427 -0.29127643 -0.24985075 -0.12622407 0.03933543
0.2163747 -0.105568886 -0.1826538 -0.09491702 0.21128681 -0.34514233 0.16968769 -0.3043697
-0.36555147 -0.07336293 0.035997413 0.3636929 -0.2964499 0.15117952 -0.108367965 0.22811165
-0.34926498 0.018490931 -0.15993732 -0.21937034 -0.047892585 0.035331946 0.17268355 0.25424203
0.12920633 -0.10586208 -0.12873302 -0.18814409 0.31166703 0.3652164 0.015773594 -0.35511667
-0.25164312 -0.08695951 -0.20801358 -0.32858992 0.28550765 0.27843836 0.33080098 0.33678165
-0.10251114 -0.28974587 -0.19355448 -0.113287695 -0.08484087 0.3598703 0.07986724 0.3443698
-0.18879771 0.30276057 -0.12301859 -0.36315575 -0.30974424 -0.022414774 0.2537326 -0.12485477
0.06939465 0.36407205 -0.2300231 -0.16994219 -0.010938019 -0.19043726 -0.23912603 -0.34922192
-0.15293922 0.2561845 0.051861316 -0.02011475 0.27537552 -0.26879984 -0.18980758 0.34733057
0.11891571 0.043968227 -0.33918113 0.35616806 -0.27108768 -0.009860117 -0.05063182 -0.19679694
0.306675 -0.2663005 0.14119998 0.19196019 -0.073416024 -0.33058822 -0.020717813 -0.34281215
0.011058674 0.30224472 0.059907805 0.38947675 0.19546479 0.13168871 -0.25095767 -0.069734804
0.08366647 0.09813222 0.2339193 0.021359034 0.28190878 0.3043094 -0.014917743 0.36780265
0.06966939 -0.07703967 -0.12834235 0.17875053 0.23331863 -0.20831858 0.046044536 -0.32171956
-0.2154691 -0.2616528 0.20782581 -0.18756942 -0.37467918 0.0986467 0.15930071 -0.21116883
0.3667443 -0.23082061 -0.23024027 0.1550335 -0.0062202783 -0.020025492 0.02126685 0.16360638
0.075084835 0.01153871 0.080400795 0.11434215 -0.15590535 -0.11105996 -0.18080932 -0.15744682
-0.0929496 -0.33707073 -0.29466915 -0.06798969 0.33044854 0.24747096 -0.307796 0.2984384
-0.010860267 0.15451366 -0.2428431 -0.005211474
00000000: 4210 243e c8bd ff3d 4d52 a03e 3a74 a4be
00000010: 54e7 f43c d894 a33e 3ea4 bcbe 6ac2 94be
00000020: 21e1 b53e d988 333d eeb3 d1bd 61a1 953e
00000030: 2157 9bbe 3002 753e cbe9 afbe aded 863e
00000040: 58e9 49be a290 9dbe c206 6cbe a45e 8ebe
00000050: 8450 d4bd 05eb 573e be2f 71be fed5 af3e
00000060: d7cd adbe 746f a1be b890 123e 16cc 273e
00000070: a119 adbe fa49 88be 4278 0b3e 02fd 793e
00000080: db7f 31be b08f f63c 2725 b5be 6e5d 59be
00000090: dece 72be d7ea 8a3e 461e 293e 7c14 a2be
000000a0: 4036 66be 517c 4abe c26d b1bc 8f07 5ebd
000000b0: 2f22 95be e0d8 7fbe e240 01be 301e 213d
000000c0: 5491 5d3e 8034 d8bd 9909 3bbe db63 c2bd
000000d0: 925b 583e 7fb6 b0be 9cc2 2d3e 58d6 9bbe
000000e0: 9029 bbbe 4e3f 96bd 0672 133d f535 ba3e
000000f0: 48c8 97be cece 1a3e 06f0 ddbd 1a96 693e
00000100: dcd2 b2be 4b7a 973c 9cc6 23be 9ea2 60be
00000110: 042b 44bd 3bb8 103d f5d3 303e 032c 823e
00000120: aa4e 043e 38ce d8bd 97d2 03be d8a8 40be
00000130: d292 9f3e a5fd ba3e a037 813c dad1 b5be
00000140: 5ed7 80be d417 b2bd 8301 55be f03c a8be
00000150: 0f2e 923e 798f 8e3e bf5e a93e a56e ac3e
00000160: 5cf1 d1bd 9259 94be 2533 46be 6103 e8bd
00000170: 0dc1 adbd ec40 b83e 6f91 a33d 3d51 b03e
00000180: 3054 41be 6f03 9b3e 2cf1 fbbd 8def b9be
00000190: cc96 9ebe 309f b7bc 3de9 813e dcb3 ffbd
000001a0: c81e 8e3d a767 ba3e 2d8b 6bbe 5305 2ebe
000001b0: 6035 33bc fc01 43be 74dd 74be 37cd b2be
000001c0: 199c 1cbe 9d2a 833e 886c 543d b0c7 a4bc
000001d0: 05fe 8c3e 22a0 89be eb5c 42be 50d5 b13e
000001e0: 148a f33d 0718 343d 26a9 adbe a95b b63e
000001f0: 01cc 8abe 548c 21bc 5063 4fbd 2385 49be
00000200: 8104 9d3e 8a58 88be ba96 103e 3691 443e
00000210: 245b 96bd dc42 a9be 67b8 a9bc 1385 afbe
00000220: 712f 353c d2bf 9a3e e361 753d 7f69 c73e
00000230: ec27 483e 68d9 063e 867d 80be 1fd1 8ebd
00000240: 5459 ab3d 8cf9 c83d 8a88 6f3e 24f9 ae3c
00000250: 5956 903e 71ce 9b3e 8d69 74bc a150 bc3e
00000260: d3ae 8e3d f9c6 9dbd 2d6c 03be 610a 373e
00000270: 14eb 6e3e 7751 55be 3299 3c3d 6db8 a4be
00000280: efa3 5cbe 5bf7 85be 4ad0 543e 3312 40be
00000290: f3d5 bfbe 4807 ca3d ba1f 233e a43c 58be
000002a0: e9c5 bb3e 3d5c 6cbe 1bc4 6bbe 1ac1 1e3e
000002b0: 7ad3 cbbb 800c a4bc d137 ae3c 6e88 273e
000002c0: 14c6 993d dc0c 3d3c 2ca9 a43d 382c ea3d
000002d0: a7a5 1fbe 6873 e3bd 1426 39be bd39 21be
000002e0: 5c5c bebd 8994 acbe e0de 96be 2e3e 8bbd
000002f0: 8d30 a93e 0769 7d3e 7097 9dbe ebcc 983e
00000300: 43ef 31bc d438 1e3e ddab 78be 03c5 aabb

encoder.lstm.bias_ih_l0 f4 [28]
0.2754699 -0.0770195 -0.16524947 0.16530655 0.22478035 0.2866138 0.14866573 0.3073644
-0.30901304 0.016841548 0.35061842 -0.1777792 -0.0004528165 0.3622258 -0.16893741 0.1128799
-0.23478179 0.064869344 -0.3752355 0.18500769 0.3329132 0.0635047 -0.30214083 0.00045213103
0.051821798 0.22667846 0.06429313 0.3443297
00000000: 640a 8d3e 66bc 9dbd 2837 29be 1f46 293e
00000010: d22c 663e 0bbf 923e d43b 183e de5e 9d3e
00000020: f536 9ebe 49f7 893c 4284 b33e c00b 36be
00000030: 0068 edb9 a975 b93e eefd 2cbe 942d e73d
00000040: a36a 70be 38da 843d de1e c0be a872 3d3e
00000050: 9973 aa3e c10e 823d 34b2 9abe 000c ed39
00000060: 1843 543d 661e 683e 1eac 833d fc4b b03e

encoder.lstm.bias_hh_l0 f4 [28]
-0.015486146 0.18916112 0.20984027 0.27270117 -0.129638 0.06850055 0.06692752 -0.32686633
-0.36325812 0.031828184 -0.13091667 -0.22194102 0.0502851 -0.31731087 -0.24828365 0.011976063
-0.13884231 0.33299264 -0.1790509 0.31359288 0.33252808 0.15840386 -0.24865265 -0.23715961
-0.11378357 0.10618639 -0.06223621 0.36220562
00000000: 9bb9 7dbc 74b3 413e 5ee0 563e 7d9f 8b3e
00000010: d3bf 04be 044a 8c3d 4c11 893d 065b a7be
00000020: f8fc b9be 455e 023d 050f 06be 8244 63be
00000030: c0f7 4d3d 9276 a2be 123e 7ebe 4037 443c
00000040: ae2c 0ebe 037e aa3e 1e59 37be 3f8f a03e
00000050: 1f41 aa3e 9f34 223e cd9e 7ebe f8d9 72be
00000060: 5c07 e9bd 4078 d93d 65eb 7ebd 0473 b93e

encoder.lstm.weight_ih_l0_reverse f4 [28, 588]
0.1403198 -0.15808502 -0.04370692 0.3750944 -0.2080587 0.1728353 -0.09156472 0.10844248
0.22737624 -0.118262604 0.25503096 0.212153 -0.20354453 0.22451198 -0.3159836 -0.05264991
0.36191326 0.1169054 0.19616723 0.30519563 0.04763632 0.23988505 -0.37460676 0.07194504
0.1835376 0.32296976 -0.041577436 0.25719315 -0.2919478 -0.22719455 0.29282668 0.32587972
0.15095988 -0.3089223 -0.26332518 -0.36857176 -0.112489276 0.35003024 0.35398728 -0.26502818
-0.26180822 -0.08072235 -0.16853167 0.1675714 -0.23167142 -0.19238137 -0.28592065 -0.28896385
0.36136344 -0.27462038 -0.05673085 -0.11939927 -0.16597974 -0.09174201 0.36808193 0.28116465
0.3367326 0.049110837 -0.27736643 -0.26072398 -0.3427816 -0.1434806 -0.08372853 0.1617454
0.19269593 -0.3015062 -0.069796234 0.081363834 -0.36556742 0.27965903 0.05089939 0.17385818
0.3463219 0.20747983 -0.064782344 -0.048243884 -0.1815988 0.1746047 0.005620992 -0.2886211
0.1473257 0.018529102 0.16180356 0.17364241 0.30522966 -0.20173544 -0.31557408 -0.16258207
-0.08457499 -0.315458 0.15427509 0.054070637 -0.24130613 0.1456494 0.15790465 0.12901475
-0.2250873 -0.14121357 -0.26414686 -0.23021628 -0.05533142 -0.3347159 0.16498363 -0.11201339
-0.057707693 -0.05224202 0.28884318 0.03887164 0.27961677 0.18409291 -0.20054413 -0.23612484
-0.002023271 -0.22092268 0.121801905 0.11264319 -0.3068864 0.29194975 -0.09117777 0.23919512
0.023571787 0.07506322 -0.048906002 -0.26056826 -0.32732224 0.2506213 0.17413239 -0.034085456
0.12520137 -0.10374289 -0.2594091 0.29550728 0.027528604 -0.34692442 -0.20166405 -0.08838611
-0.1819048 0.1240088 -0.33604157 -0.15351182 -0.19349487 0.18729314 0.16768864 0.35091823
0.3022778 0.07316974 -0.010346822 -0.056315728 0.0064226617 -0.11997808 -0.22494335 -0.07819813
0.2821587 0.37774152 -0.026337685 -0.26698732 -0.046979535 0.1805943 -0.33812395 0.07684721
0.37383643 -0.101937234 -0.3688446 0.32108632 -0.036902286 0.087488316 0.32301414 -0.13384612
-0.015740667 0.31916767 -0.0636467 0.08104715 -0.07002595 0.2507246 -0.37308756 0.37127727
-0.3121317 0.06338987 -0.16321363 -0.20522314 -0.22450605 -0.09007537 0.3239779 0.024767313
-0.00443401 -0.19580464 0.021667523 -0.3652514 -0.35847646 0.17185132 0.009803668 -0.23249061
0.33176926 -0.11125137 0.24840803 -0.3604515 -0.21604191 0.28347564 -0.3110657 -0.2373113
0.1364629 0.3746481 -0.19220805 -0.056222484 0.2047384 0.2451209 0.18771563 -0.064734675
0.28063214 0.20039035 0.06864593 -0.09559252 0.2700523 -0.322649 -0.046118073 0.3574379
-0.05377908 -0.16941303 -0.3763536 0.3213179 -0.02946121 0.3543504 -0.097477354 -0.20488307
-0.36345634 -0.088126846 0.34010267 -0.21948057 0.06675547 -0.13294171 0.02673184 0.087691754
0.22219805 -0.27274135 0.3059136 -0.041810285 -0.12026321 -0.20664948 -0.024184069 0.27146152
-0.0860788 0.17291343 -0.13867636 0.008584323 0.3387063 -0.31387877 -0.3735465 0.11444327
0.2821405 0.08196475 -0.07739938 -0.10708952 -0.35750803 -0.21636555 -0.13617313 -0.03518092
00000000: feaf 0f3e 0ae1 21be 0706 33bd 600c c03e
00000010: 570d 55be bdfb 303e 4986 bbbd 1717 de3d
00000020: 51d5 683e aa33 f2bd 6b93 823e a33e 593e
00000030: fa6d 50be 78e6 653e 9ac8 a1be 6fa7 57bd
00000040: b24c b93e 196c ef3d 10e0 483e 9a42 9c3e
00000050: 4d1e 433d 6da4 753e 75cc bfbe ec57 933d
00000060: 48f1 3b3e 4b5c a53e 1a4d 2abd d2ae 833e
00000070: 2f7a 95be b0a5 68be 61ed 953e b5d9 a63e
00000080: 3a95 1a3e 102b 9ebe 8fd2 86be 70b5 bcbe
00000090: c760 e6bd 2a37 b33e d23d b53e c6b1 87be
000000a0: ba0b 86be c251 a5bd 9193 2cbe d697 2b3e
000000b0: 463b 6dbe 9fff 44be 3164 92be 12f3 93be
000000c0: a104 b93e 0b9b 8cbe 9c5e 68bd 9b87 f4bd
000000d0: 98f6 29be 3ce3 bbbd 3c75 bc3e d0f4 8f3e
000000e0: 3768 ac3e 7228 493d f902 8ebe 9d7d 85be
000000f0: 1281 afbe 94ec 12be dd79 abbd 96a0 253e
00000100: 1552 453e 055f 9abe 54f1 8ebd 15a2 a63d
00000110: a72b bbbe 782f 8f3e e17b 503d e107 323e
00000120: 1b51 b13e 9875 543e 9bac 84bd 619b 45bd
00000130: 09f5 39be 93cb 323e 4c30 b83b 25c6 93be
00000140: 8cdc 163e 58ca 973c d5af 253e 51cf 313e
00000150: 1047 9c3e bc93 4ebe ed92 a1be ea7b 26be
00000160: a735 adbd b683 a1be 4afa 1d3e 2c79 5d3d
00000170: f418 77be 1e25 153e c2b1 213e 711c 043e
00000180: 497d 66be 4a9a 10be 423e 87be d1bd 6bbe
00000190: 33a3 62bd e25f abbe 78f1 283e 4767 e5bd
000001a0: e75e 6cbd bafb 55bd 41e3 933e de37 1f3d
000001b0: ee29 8f3e da82 3c3e 715b 4dbe b6ca 71be
000001c0: db98 04bb 8e39 62be 4773 f93d 79b1 e63d
000001d0: 3720 9dbe 707a 953e 69bb babd 91ef 743e
000001e0: 9f19 c13c bfba 993d a951 48bd 3469 85be
000001f0: c896 a7be 6f51 803e c34f 323e 319d 0bbd
00000200: ca34 003e 2777 d4bd 45d1 84be bb4c 973e
00000210: ab83 e13c 14a0 b1be 0581 4ebe c703 b5bd
00000220: 4045 3abe 53f8 fd3d a40d acbe 3432 1dbe
00000230: 8523 46be c6c9 3f3e 92b6 2b3e 8eab b33e
00000240: 28c4 9a3e 04da 953d b885 29bc 52ab 66bd
00000250: 3175 d23b 11b7 f5bd 8d57 66be 5726 a0bd
00000260: 1b77 903e 5667 c13e 21c2 d7bc 90b2 88be
00000270: 9d6d 40bd b6ed 383e 951e adbe 1262 9d3d
00000280: 7d67 bf3e 78c4 d0bd 33d9 bcbe 6d65 a43e
00000290: da26 17bd 132d b33d 1c62 a53e f50e 09be
000002a0: 92f2 80bc f269 a33e 3359 82bd 0cfc a53d
000002b0: c469 8fbd fa5e 803e 5505 bfbe 0e18 be3e
000002c0: bacf 9fbe 8cd2 813d 7921 27be 0426 52be
000002d0: eae4 65be 7079 b8bd 6ee0 a53e d2e4 ca3c
000002e0: 2c4b 91bb 0381 48be 1780 b13c 3b02 bbbe
000002f0: 3a8a b7be cbf9 2f3e 909f 203c 0512 6ebe
00000300: a9dd a93e c2d7 e3bd ad5e 7e3e 198d b8be
00000310: 173a 5dbe b823 913e 0144 9fbe bc01 73be
00000320: eebc 0b3e e0d1 bf3e 30d2 44be 8c49 66bd
00000330: f1a6 513e f900 7b3e 8738 403e 9d93 84bd
00000340: 04af 8f3e 2133 4d3e 3d96 8c3d 03c6 c3bd
00000350: 4c44 8a3e 4032 a5be 4ee6 3cbd 1a02 b73e
00000360: 7447 5cbd 9c7a 2dbe 6bb1 c0be c883 a43e
00000370: a358 f1bc 6a6d b53e 35a2 c7bd decc 51be
00000380: f316 babe d97b b4bd f021 ae3e 84bf 60be
00000390: 18b7 883d df21 08be bbfc da3c bc97 b33d
000003a0: e387 633e c1a4 8bbe b5a0 9c3e 4341 2bbd
000003b0: 8f4c f6bd ec9b 53be ab1d c6bc 01fd 8a3e
000003c0: 154a b0bd 3810 313e 2d01 0ebe 43a5 0c3c
000003d0: ea6a ad3e b8b4 a0be 7d41 bfbe 3c61 ea3d
000003e0: b874 903e 23dd a73d 9183 9ebd c051 dbbd
000003f0: 4b0b b7be ee8e 5dbe f870 0bbe de19 10bd

encoder.lstm.weight_hh_l0_reverse f4 [28, 7]
-0.25548708 -0.21328789 -0.29098555 -0.04921438 0.3295536 0.013593124 -0.14609373 0.375484
0.04315333 0.095863976 -0.2773795 0.038889516 0.009425644 0.17941323 -0.10185522 -0.2818001
0.083705366 -0.35946786 -0.27867335 -0.16078307 -0.036707878 -0.284883 0.027996212 0.1647217
-0.033223152 -0.069280535 -0.13620698 -0.08745468 -0.13573492 -0.025410563 0.14162189 -0.36643842
0.25348562 -0.30517688 0.25210282 0.11140036 0.30026 -0.1438411 0.28471667 -0.15136296
0.34598538 -0.16206583 -0.14019461 -0.15814193 0.025092453 0.2809367 -0.125043 0.020464689
-0.35529438 -0.254838 0.035720345 -0.044344746 0.36923364 -0.36774218 -0.09076207 -0.1292793
0.13674869 0.30316925 0.28724408 0.28504792 0.10387017 -0.12912594 0.026654202 0.05093509
-0.06145495 0.0034621358 0.008719981 -0.023222804 -0.13338818 -0.31327677 0.2653376 -0.09533113
0.35147372 0.018474152 -0.2914546 0.12769608 0.20389792 0.22258213 -0.2139192 0.20846894
-0.0507755 -0.26010996 -0.011335939 -0.052045286 0.08850417 0.20818523 0.016602352 0.32120848
0.07388227 0.26065183 -0.3624384 -0.07376069 0.03366226 -0.28650582 0.36168137 0.028958648
-0.1209788 0.18446305 0.02177751 0.14896587 0.36183396 -0.36505595 0.032421887 -0.12963422
-0.19058505 0.081952095 0.19282791 0.09576732 -0.0011553168 0.16666266 0.0071303546 -0.002353102
0.12648155 0.11351071 0.08843599 -0.05579151 -0.2838032 0.21346478 0.13510537 -0.34687507
-0.39832613 -0.08958415 0.020136006 -0.027275315 -0.31458607 -0.16247398 0.30137357 -0.35085714
0.07498446 -0.3170022 0.07859412 0.2929372 -0.25437754 0.1066716 0.1640707 0.07312435
0.21240857 -0.349769 0.15125951 0.3753414 -0.18050726 -0.018803269 0.13629577 -0.3224903
0.25817052 -0.33701283 -0.30521587 -0.20261414 0.18720844 0.15914501 0.2930004 -0.029816547
0.021736175 -0.10229067 -0.22739272 -0.008654207 0.03789428 -0.34855562 -0.34902593 -0.039159387
0.10031545 -0.46324795 0.18746491 0.37772053 -0.41485667 -0.08738439 0.42232573 0.09285736
-0.22317964 0.31979743 0.28347912 0.38586882 -0.030501056 -0.28392133 -0.25614333 -0.20234911
-0.253437 -0.23821434 0.1646557 -0.23158008 0.061737992 -0.19211727 0.09225553 0.29513434
0.37568828 -0.24375694 0.17276904 0.035046846 0.0905453 -0.08753523 0.012472689 0.30225292
0.2026082 0.109615535 0.018321753 0.102764785
00000000: 34cf 82be 2468 5abe 0ffc 94be 0595 49bd
00000010: 40bb a83e b2b5 5e3c 9899 15be 703f c03e
00000020: 8cc1 303d 5554 c43d b004 8ebe 9d4a 1f3d
00000030: 046e 1a3c 1ab8 373e 7899 d0bd 1a48 90be
00000040: b86d ab3d 2c0c b8be 46ae 8ebe 51a4 24be
00000050: 005b 16bd 2fdc 91be 5058 e53c ceac 283e
00000060: 0015 08bd f4e2 8dbd d879 0bbe 701b b3bd
00000070: 18fe 0abe d029 d0bc 5405 113e d19d bbbe
00000080: dec8 813e 2540 9cbe 9f13 813e df25 e43d
00000090: aebb 993e 154b 13be 62c6 913e e4fe 1abe
000000a0: ff24 b13e 96f4 25be 2d8f 0fbe f5ef 21be
000000b0: b08e cd3c efd6 8f3e 460b 00be 90a5 a73c
000000c0: 25e9 b5be 207a 82be 7f4f 123d d6a2 35bd
000000d0: 310c bd3e b448 bcbe 77e1 b9bd cb61 04be
000000e0: d907 0c3e 0039 9b3e a811 933e cdf1 913e
000000f0: e2b9 d43d 9739 04be ea59 da3c 50a1 503d
00000100: 30b8 7bbd 00e5 623b 40de 0e3c c03d bebc
00000110: e996 08be d065 a0be 54da 873e f83c c3bd
00000120: 5df4 b33e 1b57 973c 8a39 95be c3c2 023e
00000130: 9eca 503e 92ec 633e a20d 5bbe e278 553e
00000140: f8f9 4fbd 222d 85be 60ba 39bc 702d 55bd
00000150: ad41 b53d 822e 553e a801 883c 7075 a43e
00000160: 964f 973d 2874 853e 8791 b9be d80f 97bd
00000170: 70e1 093d e4b0 92be 4d2e b93e b03a ed3c
00000180: bcc3 f7bd e2e3 3c3e c066 b23c 828a 183e
00000190: 4d42 b93e 9de8 babe d0cc 043d d5be 04be
000001a0: ba28 43be 80d6 a73d ae74 453e a821 c43d
000001b0: 006e 97ba 9ea9 2a3e c0a5 e93b 8036 1abb
000001c0: 6184 013e 4e78 e83d ee1d b53d a385 64bd
000001d0: a74e 91be 8396 5a3e 1059 0a3e 9c99 b1be
000001e0: 67f1 cbbe e577 b7bd 44f4 a43c 7b70 dfbc
000001f0: 6d11 a1be 945f 26be a34d 9a3e 8ca3 b3be
00000200: 7491 993d 1d4e a2be f4f5 a03d ddfb 953e
00000210: c63d 82be a476 da3d 2602 283e 38c2 953d
00000220: a281 593e ec14 b3be c6e3 1a3e bf2c c03e
00000230: e5d6 38be 5009 9abc 1e91 0b3e 731d a5be
00000240: ed2e 843e f28c acbe 4145 9cbe 157a 4fbe
00000250: 92b3 3f3e e9f6 223e 2604 963e d541 f4bc
00000260: 1010 b23c c57d d1bd a3d9 68be 60ca 0dbc
00000270: 0837 1b3d e275 b2be 87b3 b2be 9865 20bd
00000280: 3072 cd3d d62e edbe cdf6 3f3e 9664 c13e
00000290: 1868 d4be 96f6 b2bd 143b d83e 002c be3d
000002a0: 3489 64be 7dbc a33e 2d24 913e 9990 c53e
000002b0: 5add f9bc 235e 91be 3825 83be 9b34 4fbe
000002c0: 7fc2 81be 76ee 73be 819b 283e 5423 6dbe
000002d0: fae0 7c3d 64ba 44be 78f0 bc3d d91b 973e
000002e0: 375a c03e 6b9b 79be 5eea 303e 488d 0f3d
000002f0: d06f b93d ac45 b3bd 405a 4c3c e5c0 9a3e
00000300: 8678 4f3e 1c7e e03d 8017 963c 5876 d23d

encoder.lstm.bias_ih_l0_reverse f4 [28]
0.14026158 -0.37191138 0.11465073 -0.19101322 -0.21589345 0.09240912 0.36239752 0.19279717
0.3537886 -0.32915795 -0.13449581 0.3103452 -0.32489964 -0.23128694 -0.31422365 -0.19512367
-0.2525135 0.09774758 -0.0973196 0.37441435 0.18818632 0.26941627 -0.28913695 0.2066848
0.35568386 -0.03948382 0.10103756 -0.3325583
00000000: bba0 0f3e 2b6b bebe 00ce ea3d f898 43be
00000010: 2c13 5dbe fe40 bd3d 2b8c b93e 9f6c 453e
00000020: c823 b53e 6487 a8be 45b9 09be 91e5 9e3e
00000030: 3f59 a6be 7cd6 6cbe ece1 a0be 80ce 47be
00000040: 7349 81be e22f c83d 804f c7bd 3db3 bf3e
00000050: eab3 403e eef0 893e c209 94be 2ea5 533e
00000060: 321c b63e c9b9 21bd c8ec ce3d 1545 aabe

encoder.lstm.bias_hh_l0_reverse f4 [28]
-0.10141468 0.06462341 0.017424852 -0.04886639 -0.09806897 0.10849787 -0.3593175 0.023732008
0.32086575 -0.27571917 0.32559374 0.13400349 -0.31842095 0.19548753 0.2686164 -0.08177909
-0.05168386 -0.046032816 0.16287968 0.10026294 -0.3364392 -0.15355794 -0.1747918 -0.08561821
0.15406993 0.33057645 0.035239607 0.23490801
00000000: 80b2 cfbd 4759 843d 90be 8e3c 2028 48bd
00000010: 62d8 c8bd 2234 de3d 77f8 b7be a169 c23c
00000020: 8448 a43e 102b 8dbe 39b4 a63e 3638 093e
00000030: 1208 a3be e22d 483e 1788 893e cc7b a7bd
00000040: 75b2 53bd e88c 3cbd eec9 263e a856 cd3d
00000050: c241 acbe 4b3e 1dbe 9ffc 32be 9a58 afbd
00000060: 82c4 1d3e 5141 a93e 6857 103d ba8b 703e

encoder.lstm.weight_ih_l1 f4 [28, 14]
0.039637685 -0.7701115 1.1984357 -0.14284194 2.0162146 1.1502668 -2.7317445 1.2965173
-0.15647313 0.19893557 0.84632343 0.4562266 -1.1217922 2.076309 0.7831405 0.8245444
0.3161411 -1.2496476 -0.21821241 -0.54506975 -1.2596014 0.6026691 -2.2915058 0.61351573
0.49012953 0.45448294 0.46149144 0.39204407 0.25993523 -1.0801704 0.94188225 0.15921755
-0.09179191 0.54775006 0.30994698 2.8407226 -0.50251967 0.13975859 0.26423842 0.5150961
0.5246818 0.014302751 -1.6096268 0.089810245 2.0270655 -0.24735428 2.8481176 1.408216
-1.4171026 0.6362211 0.46019238 0.52607137 -0.16175848 1.3711089 -0.044299074 2.0929835
-0.49375618 -0.7396513 2.4098165 -1.3311212 -0.4142646 0.89411515 0.83850354 0.829982
-0.05460088 1.1365583 -0.58436805 -1.3046893 -1.2844784 -0.07350141 -1.2303736 -3.1209862
0.13109449 0.0702874 0.123689085 0.04780075 0.76572496 -0.67513853 0.22215976 -0.385085
0.65729535 1.9602685 0.3114027 0.5549541 0.6211288 3.5046697 -0.14078389 0.13883555
1.4142365 -0.19350207 0.66046584 2.6636496 -0.14976236 0.21551058 0.8235867 -0.44378334
0.77755004 -0.52021545 0.99837095 1.079046 0.62691826 -0.31668833 -1.1861968 -1.241575
2.793771 -0.14238033 -0.18916622 1.4047282 -0.17418632 1.3398347 -0.51864916 1.9595238
-0.2583741 -3.2926044 -3.183863 1.2718511 0.44750357 -0.14880224 0.46403012 -0.56571937
0.8673877 -2.7876022 1.2462026 -0.03010508 -0.594529 -0.9349728 1.0266265 1.5107594
0.050962914 -0.24775007 0.6366951 -0.5317549 0.69149023 -0.10587531 -0.14086859 -0.13169335
0.11359373 -1.5611479 0.1206902 2.3541887 0.2758413 -0.8509568 1.7413577 -0.5308496
-0.39864135 0.12710667 -0.94615436 -0.7411013 0.20097631 0.3047424 -1.2300117 -2.4978878
-0.45616388 0.042384263 -0.840629 5.1961555 -1.2136885 1.9431294 -1.1854928 -1.1405661
0.44407114 3.2246308 -1.4514841 -0.38146782 1.4349805 -1.3114327 -1.9768456 -1.0002196
0.66300124 -3.3407726 0.4911216 0.37985152 -0.86234874 -0.7994325 -0.7069975 -2.9858725
-0.3272976 -0.2851037 0.2206279 0.060143914 -0.73248184 -3.3905416 0.04486102 -1.8080784
-0.18755145 -0.5109904 1.7057585 1.967615 -3.061265 0.39569187 1.4929066 -1.262114
-0.009810984 -1.3469 -1.5905073 1.3191593 0.3750766 -0.48207405 1.0753161 -0.037127018
-0.33434883 -0.4179532 0.9659755 -1.120448 0.14318044 0.059471145 0.2395218 1.4711941
1.5227044 0.3478067 -0.57330614 -2.427117 -1.3656939 -0.19409548 -0.89838797 -0.34220627
0.26274416 -1.5148438 -0.19908112 -0.58544856 0.24817596 0.07482064 -0.7401659 -0.19614726
0.3469127 0.63534915 0.7150314 -0.64963824 0.42041898 0.435653 -2.0321648 -1.6967828
0.090360776 0.38226083 0.2822109 -2.241323 -0.27985224 -0.2374253 -0.70874965 1.7810433
-2.5423102 0.0124496315 0.22250742 0.050273627 0.98637724 -0.13083525 0.6075794 -0.067435734
-0.15523721 0.44731364 -2.2132819 -0.13366503 -0.35733983 -1.411386 0.32090458 0.12317432
00000000: 205b 223d 0726 45bf 5766 993f 2845 12be
00000010: a909 0140 f13b 933f e7d4 2ec0 47f4 a53f
00000020: 7e3a 20be c4b5 4b3e a7a8 583f 8896 e93e
00000030: e396 8fbf 3fe2 0440 e57b 483f 5815 533f
00000040: 3fdd a13e 74f4 9fbf 1373 5fbe b189 0bbf
00000050: 9e3a a1bf 8648 1a3f 08a8 12c0 5e0f 1d3f
00000060: 42f2 fa3e fdb1 e83e 9b48 ec3e 00ba c83e
00000070: 3b16 853e 0643 8abf 321f 713f ed09 233e
00000080: 66fd bbbd 5939 0c3f 5fb1 9e3e 66ce 3540
00000090: 21a5 00bf e01c 0f3e 424a 873e 57dd 033f
000000a0: 8c51 063f 1656 6a3c 4008 cebf 6fee b73d
000000b0: 71bb 0140 714a 7dbe 8f47 3640 6c40 b43f
000000c0: 9e63 b5bf 63df 223f 569e eb3e 9dac 063f
000000d0: 04a4 25be 7f80 af3f f272 35bd 71f3 0540
000000e0: 9ccd fcbe ca59 3dbf 6f3a 1a40 2e62 aabf
000000f0: 7d1a d4be bbe4 643f 2ba8 563f b379 543f
00000100: 2ca5 5fbd be7a 913f 2599 15bf 0f00 a7bf
00000110: ca69 a4bf e887 96bd e27c 9dbf 3dbe 47c0
00000120: a23d 063e d7f2 8f3d b450 fd3d b8ca 433d
00000130: 8d06 443f e1d5 2cbf d97d 633e dc29 c5be
00000140: 8244 283f 14ea fa3f 2d70 9f3e 7911 0e3f
00000150: 4c02 1f3f 824c 6040 a729 10be e82a 0e3e
00000160: b405 b53f 6825 46be 4a14 293f 3c79 2a40
00000170: 4e5b 19be ceae 5c3e 94d6 523f 9237 e3be
00000180: 850d 473f d72c 05bf 3d95 7f3f 2e1e 8a3f
00000190: b77d 203f f924 a2be 4cd5 97bf eeeb 9ebf
000001a0: 25cd 3240 26cc 11be cab4 41be 22ce b33f
000001b0: e65d 32be b47f ab3f 31c6 04bf add1 fa3f
000001c0: 9c49 84be 08ba 52c0 69c4 4bc0 04cc a23f
000001d0: 301f e53e 9d5f 18be 5b95 ed3e fcd2 10bf
000001e0: 1f0d 5e3f 1368 32c0 9183 9f3f ee9e f6bc
000001f0: 0d33 18bf 615a 6fbf 7f68 833f 9060 c13f
00000200: 7dbe 503d 32b2 7dbe 73fe 223f 1721 08bf
00000210: 8105 313f 28d5 d8bd db3f 10be 9fda 06be
00000220: d4a3 e83d b2d3 c7bf 6c2c f73d 07ab 1640
00000230: 123b 8d3e 4ed8 59bf cfe4 de3f c2e5 07bf
00000240: b81a ccbe 4028 023e 2c37 72bf d1b8 3dbf
00000250: bccc 4d3e 3207 9c3e 0671 9dbf 65dd 1fc0
00000260: 508e e9be 1f9b 2d3d 7633 57bf e846 a640
00000270: 255a 9bbf 77b8 f83f 3abe 97bf 12fe 91bf
00000280: 4b5d e33e 5a60 4e40 3bca b9bf c04f c3be
00000290: 71ad b73f 07dd a7bf 4709 fdbf 3207 80bf
000002a0: 73ba 293f 38cf 55c0 4a74 fb3e e67b c23e
000002b0: e3c2 5cbf 9ca7 4cbf cafd 34bf 8918 3fc0
000002c0: 8d93 a7be 1df9 91be 48ec 613e 7759 763d
000002d0: ee83 3bbf a2fe 58c0 30c0 373d 1d6f e7bf
000002e0: 7d0d 40be 44d0 02bf 4b56 da3f cfda fb3f
000002f0: c4eb 43c0 2098 ca3e 9017 bf3f f48c a1bf
00000300: 40be 20bc 3867 acbf be95 cbbf 36da a83f
00000310: 0a0a c03e 69d2 f6be f5a3 893f 8012 18bd
00000320: c52f abbe f6fd d5be 2c4a 773f d76a 8fbf
00000330: e59d 123e 0498 733d 3445 753e 1750 bc3f
00000340: fae7 c23f b813 b23e 31c4 12bf e355 1bc0
00000350: 0fcf aebf f7c0 46be c1fc 65bf a935 afbe
00000360: 6786 863e 67e6 c1bf ecdb 4bbe f5df 15bf
00000370: d721 7e3e 903b 993d 837b 3dbf d4da 48be
00000380: 8b9e b13e 3ea6 223f 4c0c 373f b14e 26bf
00000390: 2841 d73e e90d df3e fd0e 02c0 2e30 d9bf
000003a0: 120f b93d b1b7 c33e f27d 903e d671 0fc0
000003b0: cb48 8fbe 9e1f 73be 9e70 35bf 3af9 e33f
000003c0: 36b5 22c0 8af9 4b3c fcd8 633e b8eb 4d3d
000003d0: 3883 7c3f adf9 05be 538a 1b3f bf1b 8abd
000003e0: 81f6 1ebe 4b06 e53e 69a6 0dc0 7cdf 08be
000003f0: 3ff5 b6be 4ca8 b4bf 9b4d a43e d142 fc3d

encoder.lstm.weight_hh_l1 f4 [28, 7]
-1.3325754 -0.114593126 0.104938224 1.855865 0.28064373 1.4656074 -1.1415268 -0.42249763
-0.4469493 -1.2569394 -0.85835433 0.45172232 0.70198816 -0.5070713 1.3582637 0.3806578
1.4140493 2.2906382 -1.1502013 -0.82545316 -0.47963685 0.91000986 -2.2505476 1.6573886
-0.115641154 0.80259484 -0.674769 1.4583708 0.7767472 -0.68593365 -0.13681808 -0.63178617
-0.51353425 -1.5992943 1.8606774 -0.37560245 -0.15459375 -1.114019 1.307351 0.84867835
0.76182127 -0.4362711 1.6429118 -0.8761041 -0.39677724 -0.36191693 -0.8645259 0.17648289
0.6041181 2.3892272 0.6498378 -0.84264064 -2.1506011 -2.079633 0.6653938 -0.50494987
-0.12813365 2.3422122 -0.5498528 -1.0015891 -0.62206066 0.12559101 -0.5128174 -0.7888836
-0.70649964 -1.6225716 -1.8015689 0.04931694 1.3498566 -0.3710331 0.1597112 0.4882982
1.2647156 0.55907345 -0.3189613 0.015078189 -1.4525106 0.070831 -1.3466477 -1.8945907
-0.28959605 2.5468633 1.0416365 1.515415 -1.0956287 0.49613646 1.9962002 0.04935395
0.46374446 -0.22606492 0.96124154 0.024807636 0.3189214 2.8977938 1.2199243 0.81372154
-0.8038489 -0.6283368 1.7197747 -1.6186614 0.46907932 -0.5843945 0.53466684 -0.13849333
0.9372248 -0.19309223 0.07783897 -0.42607358 0.030290144 -0.06945148 0.33399376 -0.57390964
-0.31514922 -0.1941345 -0.03361759 1.1293577 0.30329207 0.027959868 1.1537864 -0.2521918
0.1279043 0.4714247 0.09131433 -0.57833636 2.0136578 -0.30762264 -1.1809707 -0.6878324
-1.5232419 -1.4385191 0.5313315 -0.034298763 0.19591787 -0.59722614 0.19600034 -0.7190752
0.11759881 -1.5359824 1.097821 -1.2048354 0.46552494 -0.3280794 -0.12173982 -0.5929451
-1.1771462 -1.5539339 0.6099387 0.24406761 -0.33439493 0.79423517 -1.3015023 0.461601
0.782617 0.33137602 0.8380956 1.4130582 0.15136614 0.4476455 -1.5827018 1.025215
1.2624483 -0.7772906 2.1417475 -0.08440191 0.33481365 0.76633865 -0.21000955 -0.6347544
-1.0784911 1.6893315 1.9225476 0.11671498 -0.16281527 0.49293357 0.25465408 -0.12033209
1.7542605 -0.7672973 1.2319616 0.8618877 -2.565711 1.4256046 1.2555587 -1.3984191
0.7335862 1.0539972 -0.3582562 0.5961358 -1.109525 -0.44406506 1.2136984 1.9964921
-1.776867 -0.7633595 -0.8304723 -0.055173755
00000000: d591 aabf cdaf eabd dae9 d63d fc8c ed3f
00000010: 89b0 8f3e 0699 bb3f 8d1d 92bf 9c51 d8be
00000020: 8ad6 e4be 64e3 a0bf 1cbd 5bbf 2648 e73e
00000030: 7fb5 333f 6dcf 01bf 96db ad3f 94e5 c23e
00000040: 91ff b43f d199 1240 cc39 93bf e650 53bf
00000050: f692 f5be 68f6 683f f908 10c0 4f25 d43f
00000060: 45d5 ecbd db76 4d3f a9bd 2cbf e5ab ba3f
00000070: e8d8 463f 5999 2fbf 0a1a 0cbe bdbc 21bf
00000080: fb76 03bf adb5 ccbf ad2a ee3f f74e c0be
00000090: d34d 1ebe 2d98 8ebf 4757 a73f fc42 593f
000000a0: b806 433f ed5e dfbe ef4a d23f 5c48 60bf
000000b0: 6326 cbbe 2d4d b9be 9251 5dbf eeb7 343e
000000c0: 7ca7 1a3f 19e9 1840 c55b 263f 4cb7 57bf
000000d0: 73a3 09c0 b518 05c0 4057 2a3f 6544 01bf
000000e0: 7835 03be cee6 1540 27c3 0cbf 1234 80bf
000000f0: 5e3f 1fbf ee9a 003e 0048 03bf 47f4 49bf
00000100: 29dd 34bf 6db0 cfbf cf99 e6bf 8f00 4a3d
00000110: 1ac8 ac3f 0df8 bdbe 558b 233e 3902 fa3e
00000120: 33e2 a13f 701f 0f3f e54e a3be 820a 773c
00000130: deeb b9bf d80f 913d f45e acbf f381 f2bf
00000140: ef45 94be cfff 2240 5854 853f 1ef9 c13f
00000150: 903d 8cbf 9905 fe3e 7d83 ff3f 5e27 4a3d
00000160: ea6f ed3e 907d 67be ed13 763f 6239 cb3c
00000170: aa49 a33e 7475 3940 7b26 9c3f 0e50 503f
00000180: 0bc9 4dbf aeda 20bf 9421 dc3f 4c30 cfbf
00000190: 2a2b f03e e19a 15bf eddf 083f 32d1 0dbe
000001a0: f7ed 6f3f f8b9 45be 0a6a 9f3d 5126 dabe
000001b0: 0923 f83c 943c 8ebd 3b01 ab3e beeb 12bf
000001c0: 3d5b a1be 32cb 46be 99b2 09bd cb8e 903f
000001d0: 1949 9b3e 180c e53c 46af 933f 491f 81be
000001e0: 58f9 023e 945e f13e 0203 bb3d da0d 14bf
000001f0: c5df 0040 b780 9dbe 0c2a 97bf c915 30bf
00000200: 97f9 c2bf 6521 b8bf 5705 083f dc7c 0cbd
00000210: b29e 483e d0e3 18bf 50b4 483e 5015 38bf
00000220: a5d7 f03d 129b c4bf 6685 8c3f 0c38 9abf
00000230: 4959 ee3e 06fa a7be ba52 f9bd 40cb 17bf
00000240: baac 96bf 4ee7 c6bf f124 1c3f dcec 793e
00000250: d035 abbe ff52 4b3f a197 a6bf f756 ec3e
00000260: 9659 483f 1eaa a93e 6f8d 563f 17df b43f
00000270: baff 1a3e ca31 e53e f995 cabf 3f3a 833f
00000280: e897 a13f 84fc 46bf 6412 0940 e9da acbd
00000290: b26c ab3e c52e 443f be0c 57be 447f 22bf
000002a0: ff0b 8abf 043c d83f 0a16 f63f 4308 ef3d
000002b0: 0cb9 26be ca61 fc3e 0562 823e ac70 f6bd
000002c0: 9c8b e03f 996d 44bf ebb0 9d3f aca4 5c3f
000002d0: 9c34 24c0 367a b63f 26b6 a03f 66ff b2bf
000002e0: 4ecc 3b3f 61e9 863f 5b6d b7be 5b9c 183f
000002f0: ea04 8ebf 7f5c e3be 785a 9b3f 0e8d ff3f
00000300: 6170 e3bf 876b 43bf d599 54bf e0fd 61bd

encoder.lstm.bias_ih_l1 f4 [28]
0.9401655 0.92440796 0.26940843 -0.22221926 0.4452439 0.22695862 0.9133346 0.18514703
-0.74850506 0.74180305 0.8975376 0.4991656 -0.30528232 -0.22064084 -0.08553877 -0.09700215
0.63540846 -0.09184541 -0.29070306 0.23105222 0.065197624 0.72518086 0.5177667 1.267483
0.7538542 1.0712217 0.95121115 0.5208701
00000000: b0ae 703f 00a6 6c3f e7ef 893e 728d 63be
00000010: 02f7 e33e d767 683e 4cd0 693f 2f97 3d3e
00000020: 079e 3fbf cee6 3d3f 06c5 653f a292 ff3e
00000030: f74d 9cbe acef 61be f32e afbd 10a9 c6bd
00000040: 21aa 223f 7219 bcbd 08d7 94be f498 6c3e
00000050: 5586 853d 74a5 393f 5c8c 043f e23c a23f
00000060: 97fc 403f cb1d 893f 9382 733f be57 053f

encoder.lstm.bias_hh_l1 f4 [28]
0.8392812 0.57693285 0.601789 0.053019565 0.6995326 0.709026 0.62920207 0.3674517
-0.54990715 0.34499198 0.70541775 0.4571799 -0.58837706 0.10521695 -0.23422085 -0.30324712
0.7121832 -0.5205446 -0.16929069 -0.23922849 -0.39818072 0.9400233 0.34020212 1.2039571
0.42709747 1.5381161 0.9654246 0.27271974
00000000: 22db 563f dfb1 133f d80e 1a3f 0b2b 593d
00000010: 9214 333f ba82 353f 6313 213f a122 bc3e
00000020: b7c6 0cbf caa2 b03e 4296 343f 7c13 ea3e
00000030: e19f 16bf fc7b d73d 97d7 6fbe 3543 9bbe
00000040: a351 363f 6942 05bf 8a5a 2dbe 50f8 74be
00000050: 58de cbbe 5ea5 703f f92e ae3e 441b 9a3f
00000060: 85ac da3e fde0 c43f 1126 773f eca1 8b3e

encoder.lstm.weight_ih_l1_reverse f4 [28, 14]
1.4446365 4.920647 -1.2473071 -0.5033325 0.18789962 -1.1723312 -0.6236153 -1.0070635
-0.6476812 -0.78741866 0.6125278 0.9816395 1.9052968 -0.97410566 -1.288507 -0.4986766
-0.616266 0.74295205 -1.3376467 -0.54020107 -2.3260589 2.9097018 0.15135519 -1.2919956
0.20115761 -0.041119926 -1.2343954 -1.0589709 -1.4154403 0.63039887 -1.4820088 0.2928458
0.8488393 0.08576336 -1.3788865 0.7832245 -0.7363861 -0.6387086 1.3662946 -1.041166
-1.3093239 -2.3875582 0.20620228 0.7256252 -0.619629 -0.5910554 -0.85355985 0.6627854
0.17274952 -1.5577792 -1.0546693 -0.5979975 0.50054497 0.52258235 -3.020593 -1.5400093
-1.0027497 0.19382791 -1.7590009 0.8734394 0.072293505 -0.12619087 -0.992188 -0.40669954
-0.7388648 -0.69639426 1.3113573 2.0536113 -0.532562 1.5300508 0.92580366 -1.0844052
-2.8780687 -0.23565106 -0.14824544 -0.086399145 -1.81825 2.2992244 -0.47385463 -0.13253123
0.759703 4.0049877 -0.39292118 -0.29666838 0.46522203 0.527167 0.987305 1.0112882
1.3083178 1.2423034 0.09858681 -0.63417274 -0.3042475 -0.63965845 1.1259338 0.2896904
-0.9289728 2.1339872 -2.927577 -2.1501884 -1.2226274 1.0548092 -1.0053248 -0.35765585
2.2935936 0.26694137 0.54287034 0.121197164 -0.18856491 0.26734993 1.7675687 1.9076114
-1.4142509 0.8007528 4.407382 0.36917564 -2.752879 -1.611837 0.8470997 -0.4577316
-0.85614324 -1.815161 1.369004 2.2629502 1.1814373 0.16907093 0.880338 -1.3753526
-0.6066975 1.686754 1.6790652 -0.39136758 -0.9583507 2.3258293 0.58062613 -2.0995536
1.0995097 -0.76839167 0.30640793 -0.37774417 0.22271913 0.48479933 2.0594163 -0.79327446
1.2744057 1.7164277 -0.7148753 0.12470939 0.14792852 1.8631821 -1.7807026 0.48094806
-0.18993317 1.5955765 -1.3189956 -4.1226964 -0.52730834 1.2058405 0.2923867 -2.9665477
3.342518 -0.48827428 -1.466186 -0.7189885 0.7603099 -1.6216873 -1.2402796 1.2077241
-1.0522765 0.79557663 1.7746689 -0.40744036 -1.0069574 0.35275844 -1.0201823 2.1707969
0.4150689 0.71938634 -0.9157917 -4.8799906 0.24192293 2.676021 -2.3924565 -1.6054584
1.2118789 -0.6388901 -1.3249099 -0.6424034 -2.0958526 -0.1908861 0.0240758 -1.8624252
0.53195757 -0.2754123 1.2185631 -0.8669279 -0.06486286 0.42353305 -1.6501538 0.38610554
-0.34290776 -0.12229926 -2.1706223 -0.05985973 -0.080676295 -0.2401642 0.31487554 -1.3806926
0.121623725 -0.20641436 0.9113615 2.2560287 -0.017845454 0.3314875 -0.76418144 0.24082063
0.04907062 -0.012797502 0.09196978 0.49445248 0.02029146 -1.04976 0.45449954 0.6230491
0.67388755 2.26726 1.1436714 -0.18604814 -0.2238924 1.1095623 0.30773807 -0.28063792
-0.58751184 0.4330315 0.14989085 -1.3611485 1.5631503 -0.5008486 0.26139352 0.3585554
-1.6399866 0.011153771 -1.0035071 0.6008107 1.6416622 1.0566972 -0.052550096 -0.08942505
0.11562859 0.21327585 0.4267882 -1.0384687 -0.61811984 1.6208925 1.1728103 0.08458206
00000000: d9e9 b83f f175 9d40 c2a7 9fbf 66da 00bf
00000010: c268 403e f30e 96bf 41a5 1fbf 75e7 80bf
00000020: 6fce 25bf 4594 49bf 9fce 1c3f ba4c 7b3f
00000030: c4e0 f33f fd5e 79bf cced a4bf 8a52 ffbe
00000040: 9cc3 1dbf 1b32 3e3f 0238 abbf 9e4a 0abf
00000050: 26de 14c0 8e38 3a40 dbfc 1a3e 1d60 a5bf
00000060: 43fc 4d3e 5e6d 28bd ab00 9ebf 5c8c 87bf
00000070: 262d b5bf d261 213f 77b2 bdbf e2ef 953e
00000080: 884d 593f b3a4 af3d 5a7f b0bf 6781 483f
00000090: cd83 3cbf 6882 23bf bee2 ae3f ed44 85bf
000000a0: ed97 a7bf c1cd 18c0 b126 533e 93c2 393f
000000b0: 02a0 1ebf 684f 17bf e682 5abf 4eac 293f
000000c0: 40e5 303e 4f65 c7bf 67ff 86bf 5d16 19bf
000000d0: b723 003f f5c7 053f 6551 41c0 061f c5bf
000000e0: 1a5a 80bf d37a 463e f126 e1bf b999 5f3f
000000f0: 9e0e 943d 2e38 01be 0800 7ebf ec3a d0be
00000100: 3e26 3dbf e546 32bf 8eda a73f 5e6e 0340
00000110: fc55 08bf b4d8 c33f 7801 6d3f cacd 8abf
00000120: 4732 38c0 834e 71be a7cd 17be 09f2 b0bd
00000130: 6abc e8bf 7e26 1340 139d f2be 44b6 07be
00000140: e57b 423f dc28 8040 f72c c9be ebe4 97be
00000150: 9531 ee3e 6bf4 063f 05c0 7c3f e471 813f
00000160: f576 a73f cc03 9f3f e2e7 c93d 2559 22bf
00000170: 54c6 9bbe a8c0 23bf 991e 903f 4d52 943e
00000180: 29d1 6dbf 3f93 0840 6c5d 3bc0 b09c 09c0
00000190: 0e7f 9cbf fd03 873f 7cae 80bf ab1e b7be
000001a0: 3dca 1240 8aac 883e 8df9 0a3f 3836 f83d
000001b0: 2917 41be 17e2 883e b13f e23f 9c2c f43f
000001c0: 2c06 b5bf 23fe 4c3f 4609 8d40 9704 bd3e
000001d0: 2b2f 30c0 ad50 cebf 87db 583f cc5b eabe
000001e0: 342c 5bbf 3257 e8bf 863b af3f 2dd4 1040
000001f0: 5639 973f ee20 2d3e d55d 613f 8e0b b0bf
00000200: 8750 1bbf 8ee7 d73f 9ceb d63f 5561 c8be
00000210: 7956 75bf 63da 1440 eaa3 143f 165f 06c0
00000220: bcbc 8c3f 51b5 44bf 80e1 9c3e af67 c1be
00000230: 7c10 643e 9e37 f83e 7acd 0340 0914 4bbf
00000240: ba1f a33f e7b3 db3f 1102 37bf a367 ff3d
00000250: 937a 173e c07c ee3f 10ee e3bf d33e f63e
00000260: d77d 42be da3b cc3f d9d4 a8bf 21ed 83c0
00000270: aefd 06bf fb58 9a3f b6b3 953e ebdb 3dc0
00000280: d1eb 5540 16ff f9be fcab bbbf a10f 38bf
00000290: aba3 423f 7393 cfbf 7bc1 9ebf b496 9a3f
000002a0: ffb0 86bf e9aa 4b3f 5a28 e33f 069c d0be
000002b0: fbe3 80bf c19c b43e 5595 82bf 56ee 0a40
000002c0: e983 d43e b429 383f 5371 6abf e228 9cc0
000002d0: a5ba 773e ee43 2b40 021e 19c0 a97f cdbf
000002e0: d91e 9b3f 4d8e 23bf a696 a9bf 8d74 24bf
000002f0: 7322 06c0 a577 43be 9d3a c53c f363 eebf
00000300: 5f2e 083f d702 8dbe e0f9 9b3f fdee 5dbf
00000310: d2d6 84bd 53d9 d83e 3d38 d3bf a0af c53e
00000320: 9b91 afbe 0978 fabd 7aeb 0ac0 7a2f 75bd
00000330: 9d39 a5bd 9bed 75be 5e37 a13e 89ba b0bf
00000340: dc15 f93d 495e 53be fd4e 693f c662 1040
00000350: a130 92bc bbb8 a93e 65a1 43bf af99 763e
00000360: 46fe 483d 9dac 51bc a75a bc3d e028 fd3e
00000370: 473a a63c 895e 86bf 2ab4 e83e 2580 1f3f
00000380: e583 2c3f ca1a 1140 d363 923f 6783 3ebe
00000390: 0d44 65be 2306 8e3f d88f 9d3e c6af 8fbe
000003a0: 2d67 16bf 4eb6 dd3e fd7c 193e 1d3a aebf
000003b0: 4f15 c83f 9d37 00bf 5fd5 853e 9394 b73e
000003c0: 15eb d1bf 4ebe 363c ec72 80bf bbce 193f
000003d0: fd21 d23f db41 873f c53e 57bd 7b24 b7bd
000003e0: afce ec3d fc64 5a3e fc83 da3e 8bec 84bf
000003f0: 1a3d 1ebf 6879 cf3f a61e 963f 5c39 ad3d

encoder.lstm.weight_hh_l1_reverse f4 [28, 7]
-0.79199815 -0.7569161 0.9685483 -1.1503025 0.9081872 0.7773399 -0.83741206 -1.0771471
0.8279749 -0.7185516 -0.5626319 0.7779319 -0.9000053 1.0974331 0.44024256 -1.0312445
-1.3100876 0.6248583 0.7589855 -0.5798165 1.0366696 -0.16147977 -0.16786458 -0.53859
0.7501926 1.6555644 1.88626 -0.33763587 -0.4029763 -0.52636683 1.8729607 0.4812539
-0.4739166 -1.5170972 0.04692195 0.5176759 0.3748661 0.6354113 -0.21183902 1.4982644
-1.2119004 2.2032726 2.5169268 -0.5825798 -0.81944066 0.11219972 0.8828492 -0.40613663
-0.07201182 -0.48263395 -1.0631893 -0.06290594 1.3724995 -1.2288561 -0.36553338 -0.70440143
-0.16211584 -0.61270005 1.4853628 -0.9583726 -0.60740477 0.18287812 -0.584752 2.1990776
-0.3545253 0.6385478 2.2372377 0.29242283 0.7179915 0.48956472 1.2505308 1.0909499
-0.15344597 0.13926496 -1.2774953 0.74207824 -2.1298692 0.055458084 -0.8151083 -1.2855842
-0.43602338 -0.48416567 1.2301219 0.919133 -1.4503555 -0.16779813 0.6136153 1.3469839
-0.77221197 0.26431936 -2.11978 2.1017394 -0.3003623 2.4229712 0.54727113 0.4336774
-0.3618146 -0.40268102 0.02160663 -1.225755 0.83095604 0.9640846 -0.41197556 0.44385946
0.48743764 0.9789605 -0.42954156 -0.2716492 0.2532644 2.1069658 -0.83613795 1.308161
0.80789524 0.3924433 0.8099305 -1.0505173 -0.5680112 -0.92069966 -0.87011796 -1.3947326
1.0919628 -0.260766 0.19759752 -0.08975179 0.59941244 1.015801 1.4698898 0.22681497
-0.14360385 -0.83257365 1.7515912 -0.57854223 -0.3147899 0.9253928 0.62895966 0.9686467
-0.19189318 1.4170171 0.94206625 0.41514355 -0.5293572 -0.3546084 -0.4091924 -0.26116532
-0.4031016 0.40066418 -1.5995085 0.7100602 -0.212266 0.7574205 0.10359754 -3.2232637
-1.7963643 0.15372881 -0.2978089 0.7192695 1.4858214 -2.1659784 -0.5750155 0.22847024
-0.8531487 -0.6877035 -1.1253972 1.7421257 1.4218323 -0.8855829 -0.8127606 -0.031656217
-0.6653192 -0.26393414 -0.25964436 -1.4515834 -0.26880595 -1.103746 0.44753444 0.8085627
-1.4271003 -1.142694 0.486453 0.53022116 -0.58823246 -0.6042291 -0.9062895 1.3717296
-0.44274285 0.0959328 0.6352676 1.0023679 2.2338269 1.7163941 -0.4504219 0.95303625
-0.7260549 0.26757208 -1.1118243 0.4100892
00000000: 64c0 4abf 41c5 41bf c8f2 773f 1d3d 93bf
00000010: f57e 683f bfff 463f a360 56bf f5df 89bf
00000020: 2af6 533f fff2 37bf a508 10bf 8c26 473f
00000030: bf66 66bf b078 8c3f 7967 e13e d2ff 83bf
00000040: f3b0 a7bf b7f6 1f3f e04c 423f db6e 14bf
00000050: 97b1 843f f45a 25be b1e4 2bbe 09e1 09bf
00000060: 9f0c 403f 89e9 d33f f870 f13f 9cde acbe
00000070: e952 cebe fabf 06bf 2dbd ef3f e966 f63e
00000080: 32a5 f2be 3e30 c2bf 3b31 403d 6886 043f
00000090: 73ee bf3e 51aa 223f 54ec 58be 21c7 bf3f
000000a0: 8d1f 9bbf 6b02 0d40 5415 2140 f323 15bf
000000b0: ddc6 51bf f8c8 e53d 6802 623f 24f1 cfbe
000000c0: ef7a 93bd cc1b f7be 9616 88bf d4d4 80bd
000000d0: 10ae af3f 284b 9dbf 3127 bbbe a753 34bf
000000e0: b201 26be e9d9 1cbf 5e20 be3f e857 75bf
000000f0: e17e 1bbf 6744 3b3e 4fb2 15bf b0bd 0c40
00000100: 5784 b5be de77 233f e72e 0f40 72b8 953e
00000110: 4ace 373f 3aa8 fa3e 6511 a03f 3fa4 8b3f
00000120: f120 1dbe 799b 0e3e f784 a3bf d7f8 3d3f
00000130: c74f 08c0 0428 633d f0aa 50bf 068e a4bf
00000140: 753e dfbe 90e4 f7be a274 9d3f 4d4c 6b3f
00000150: 40a5 b9bf 46d3 2bbe e415 1d3f f869 ac3f
00000160: afaf 45bf de54 873e 7aaa 07c0 e682 0640
00000170: 16c9 99be f611 1b40 f619 0c3f f70a de3e
00000180: c33f b9be 352c cebe 6300 b13c 8ae5 9cbf
00000190: 89b9 543f 40ce 763f 76ee d2be 8c41 e33e
000001a0: 6d91 f93e 289d 7a3f dfec dbbe 9b15 8bbe
000001b0: dfab 813e 87d8 0640 230d 56bf d271 a73f
000001c0: 39d2 4e3f 54ee c83e 9b57 4f3f 5a77 86bf
000001d0: 2f69 11bf f9b2 6bbf 0dc0 5ebf 9986 b2bf
000001e0: 70c5 8b3f 1f83 85be 0157 4a3e c9cf b7bd
000001f0: 1873 193f c405 823f 5925 bc3f 2f42 683e
00000200: e30c 13be 8c23 55bf 2434 e03f 581b 14bf
00000210: 242c a1be 8be6 6c3f 8003 213f 3bf9 773f
00000220: a57f 44be d160 b53f 412b 713f b28d d43e
00000230: f483 07bf 3b8f b5be ab81 d1be 76b7 85be
00000240: 5563 cebe db23 cd3e b2bc ccbf 81c6 353f
00000250: 425c 59be 4fe6 413f f22a d43d f449 4ec0
00000260: 44ef e5bf 166b 1d3e 687a 98be 0c22 383f
00000270: 652f be3f 649f 0ac0 3734 13bf 1af4 693e
00000280: f467 5abf 560d 30bf 040d 90bf fafd de3f
00000290: 9afe b53f 90b5 62bf 1411 50bf f3a9 01bd
000002a0: 5c52 2abf 6022 87be 1bf0 84be 7ccd b9bf
000002b0: efa0 89be 8d47 8dbf 3c23 e53e f7fd 4e3f
000002c0: 39ab b6bf cc43 92bf 5e10 f93e 93bc 073f
000002d0: 6796 16bf c2ae 1abf 9702 68bf d694 af3f
000002e0: 31af e2be 6a78 c43d e6a0 223f 974d 803f
000002f0: 05f7 0e40 cdb2 db3f b39d e6be 2ffa 733f
00000300: bcde 39bf 35ff 883e 4250 8ebf 36f7 d13e

encoder.lstm.bias_ih_l1_reverse f4 [28]
0.06744477 0.4796814 0.565841 0.7422229 0.2701163 1.016871 0.15295063 -0.56043404
0.5102106 0.3363563 0.51096046 0.06306372 -0.13485387 -0.26832387 -0.25246355 -0.2541263
0.59551734 0.5191286 0.2381937 0.0363043 0.3464606 0.6355775 0.08465784 1.0767123
1.2881026 0.76659113 1.0165102 0.6122
00000000: 7c20 8a3d cd98 f53e f5da 103f 5202 3e3f
00000010: af4c 8a3e d428 823f 179f 1c3e 9b78 0fbf
00000020: 299d 023f e536 ac3e 4ece 023f 8d27 813d
00000030: 2217 0abe bf61 89be e742 81be d81c 82be
00000040: d373 183f 9de5 043f 0de9 733e d1b3 143d
00000050: 4963 b13e 35b5 223f 1761 ad3d b5d1 893f
00000060: 8ce0 a43f 513f 443f 021d 823f 24b9 1c3f

encoder.lstm.bias_hh_l1_reverse f4 [28]
-0.20954286 0.58335435 0.6124021 0.60518193 0.786134 1.0352854 0.41887355 -0.5969168
0.018550646 0.009951219 0.4660623 -0.05523291 -0.16213055 -0.051405795 -0.013657777 0.18341786
0.4777761 0.059292644 -0.22344454 0.08952864 0.14325361 0.4924759 0.64055055 1.2041751
1.1038984 0.95519847 1.479341 0.8065493
00000000: 6792 56be b656 153f 62c6 1c3f 34ed 1a3f
00000010: 1440 493f 3b84 843f 9876 d63e 8acf 18bf
00000020: 86f7 973c 700a 233c b89f ee3e e73b 62bd
00000030: 8d05 26be e28e 52bd dec4 5fbc e4d1 3b3e
00000040: 129f f43e d8dc 723d a5ce 64be cb5a b73d
00000050: 13b1 123e cd25 fc3e 1ffb 233f 6922 9a3f
00000060: 8b4c 8d3f e387 743f 0c5b bd3f 047a 4e3f
